direction_model.pth (torch, 564483 bytes, 41 tensors)

fuser.input_layer.weight f4 [64, 518]
0.02503994 0.71970034 -0.18440889 0.40104902 1.0723795 -0.23499419 -1.5730739 0.037054732
-0.1269732 0.38129172 0.0439486 0.33056572 0.37295777 -0.54011995 -0.3173604 0.80298555
-1.4811951 -0.8484594 0.32708097 -0.39901403 -0.19180778 0.7655267 0.06300534 -0.33488292
0.5281103 -1.2060419 1.1176977 -0.21315117 1.0555056 0.19010583 -0.25271502 -0.010697267
0.13810395 0.9039098 -0.09139236 0.09821016 0.33144638 -0.12503594 0.36332965 -0.3111903
0.16507208 -0.38045016 -0.23035082 -0.3808908 0.45776638 0.8534344 -0.18651226 -0.22979908
-0.045001745 0.06987441 -0.11870858 0.7458385 -0.20198819 -0.4420664 0.12843621 -0.13930017
-0.2970718 -0.20702925 0.061056316 -0.59208363 -0.20273322 -0.41391963 0.32768708 -0.19021222
-0.10288768 0.021680305 -1.0725738 -0.11827332 0.049999513 0.79442596 -0.69047064 0.29780316
0.4017333 0.060074262 -0.21925835 -2.841829 -0.23354553 0.84511626 -0.2979276 -0.67929626
-0.39448 0.20013724 0.8248583 -0.012610517 0.70174503 -1.1437026 1.0712553 0.30655318
0.07337522 0.059396055 0.3170326 0.034893908 0.4155676 -0.82830036 -0.8147709 0.5008716
0.112468846 0.076631755 -0.21265376 0.8423258 -0.7415644 0.35635176 -0.50637573 -0.052567482
-0.3095221 -0.11834882 -0.7871177 -0.23391743 0.07582822 -0.15611292 0.20495953 0.79394674
-0.07250507 -1.0931901 0.76823086 0.21038891 0.28534693 0.02124222 0.09118431 -0.1642539
-0.20779596 -0.65359145 0.68506646 -0.09521002 -0.34938514 -0.74993694 0.051258016 -0.4226353
-0.4527829 0.29501733 -0.74227196 0.09636727 0.97412324 -0.108207226 -1.1196349 0.02816174
0.13134208 0.26619756 0.45617634 0.3550286 -0.03977973 -0.19560501 -0.19206113 -0.18757841
0.53285867 0.20174527 -0.15045103 0.121593416 0.49007192 -0.8533784 -0.19585922 0.20571202
-0.60145175 0.38959152 0.0133772455 0.07454518 0.21356894 -0.4883074 -0.068519115 0.29737923
0.3280263 0.5434039 0.51520956 -0.042566616 -0.15089571 -0.7954749 -1.1074504 -0.43900728
-0.26103032 0.3466191 -0.21290301 0.00540442 -0.31763548 -0.81995475 -0.7458809 -0.47796166
-0.12879893 0.37271166 0.9913633 0.22924799 0.14589201 -0.20012228 0.3327354 0.14861552
0.30584183 -0.077213906 0.5270534 -0.1786794 -0.6289228 0.7479824 -0.5056902 -0.3878438
0.18826929 -0.04277497 0.005233691 0.40067235 -0.4235895 -0.09246379 -0.17096816 -0.22837812
0.41078013 0.48236737 -0.5309692 -0.29629353 -0.67746973 0.35575193 -0.28419158 -0.5507377
-0.17469694 0.40988645 -1.136253 0.68287504 0.84126717 0.010502223 0.4739204 0.07784436
-0.3605134 0.6202188 -0.3837931 0.08522261 0.052045025 0.63712716 0.059947647 -0.22061954
0.13898815 -0.0801622 0.24068904 -0.29176292 0.6738286 0.17484228 0.043167226 0.03479056
-0.35010496 0.065565534 -0.09763893 -0.027191833 0.715476 -0.41676494 -0.025489688 -0.30728176
0.42958662 -0.2231247 -0.54627764 -0.0026339698 -0.30991244 -0.94615054 -0.003915134 -0.4847701
0.36534998 0.1260728 0.18498194 -0.018274907 0.2843059 -0.3999397 -0.09875941 -0.20039934
00000000: 8f20 cd3c 483e 383f afd5 3cbe 4c56 cd3e
00000010: bb43 893f 51a2 70be 7c5a c9bf b4c6 173d
00000020: 4305 02be ab38 c33e 7203 343d e93f a93e
00000030: 52f4 be3e 4d45 0abf 107d a2be 7690 4d3f
00000040: cd97 bdbf a334 59bf 2877 a73e 914b ccbe
00000050: 4269 44be 8ff9 433f f208 813d c675 abbe
00000060: 3d32 073f 955f 9abf b810 8f3f 4d44 5abe
00000070: cf1a 873f 1aab 423e dd63 81be 9743 2fbc
00000080: 1f6b 0d3e a266 673f eb2b bbbd 6922 c93d
00000090: 57b3 a93e 6c09 00be 5806 ba3e 5654 9fbe
000000a0: a808 293e 5dca c2be 16e1 6bbe 1e04 c3be
000000b0: 5b60 ea3e ad7a 5a3f 12fd 3ebe 7350 6bbe
000000c0: c053 38bd 511a 8f3d 7c1d f3bd 46ef 3e3f
000000d0: fed5 4ebe 8756 e2be c884 033e b4a4 0ebe
000000e0: cc19 98be 7aff 53be 3016 7a3d cb92 17bf
000000f0: 4c99 4fbe 46ed d3be 9ac6 a73e fec6 42be
00000100: c7b6 d2bd e59a b13c 194a 89bf 4839 f2bd
00000110: 4acc 4c3d 805f 4b3f afc2 30bf a879 983e
00000120: fdaf cd3e 6e10 763d 4385 60be 87e0 35c0
00000130: 8f26 6fbe 8a59 583f f789 98be 5ce6 2dbf
00000140: 48f9 c9be c7f0 4c3e ea29 533f 589c 4ebc
00000150: 90a5 333f d964 92bf e51e 893f 8af4 9c3e
00000160: bf45 963d 4749 733d 1952 a23e eaec 0e3d
00000170: 47c5 d43e 7e0b 54bf d394 50bf 1f39 003f
00000180: 1156 e63d 1cf1 9c3d e8c1 59be aaa2 573f
00000190: 2ad7 3dbf bd73 b63e d7a1 01bf 0051 57bd
000001a0: ae79 9ebe de60 f2bd 8c80 49bf 0d88 6fbe
000001b0: d34b 9b3d 11dc 1fbe e9e0 513e 1840 4b3f
000001c0: 8a7d 94bd a7ed 8bbf c7aa 443f 3170 573e
000001d0: fe18 923e 2a04 ae3c d7be ba3d 2d32 28be
000001e0: 77c8 54be c551 27bf 8460 2f3f 79fd c2bd
000001f0: 9ce2 b2be defb 3fbf edf3 513d a763 d8be
00000200: 29d3 e7be 830c 973e 8905 3ebf 345c c53d
00000210: 2460 793f c09b ddbd 3250 8fbf 73b3 e63c
00000220: 8a7e 063e 0c4b 883e f28f e93e 4fc6 b53e
00000230: 12f0 22bd ae4c 48be acab 44be 8e14 40be
00000240: 6d69 083f 5096 4e3e d60f 1abe f805 f93d
00000250: b5ea fa3e 0277 5abf 528f 48be 2ca6 523e
00000260: bef8 19bf 8a78 c73e 3c2c 5b3c 25ab 983d
00000270: d1b1 5a3e 6d03 fabe c053 8cbd 1742 983e
00000280: 10f3 a73e 851c 0b3f c6e4 033f 555a 2ebd
00000290: 6884 1abe 3ea4 4bbf efc0 8dbf 90c5 e0be
000002a0: c4a5 85be 0f78 b13e 3f03 5abe 9017 b13b
000002b0: 1ea1 a2be 8ee8 51bf 0df2 3ebf 64b7 f4be
000002c0: dee3 03be 10d4 be3e fcc9 7d3f fcbf 6a3e
000002d0: b764 153e dbec 4cbe 4b5c aa3e ab2e 183e
000002e0: 4d97 9c3e 5322 9ebd f9ec 063f bcf7 36be
000002f0: 1601 21bf c67b 3f3f ea74 01bf 7693 c6be
00000300: aac9 403e cf34 2fbd 627f ab3b ed24 cd3e
00000310: b9e0 d8be a85d bdbd 4712 2fbe f4db 69be
00000320: c651 d23e dbf8 f63e 99ed 07bf c9b3 97be
00000330: a86e 2dbf 1e25 b63e 8f81 91be 25fd 0cbf
00000340: c1e3 32be a3dc d13e bd70 91bf e6d0 2e3f
00000350: 495d 573f 8411 2c3c b2a5 f23e dd6c 9f3d
00000360: 3695 b8be a9c6 1e3f 8780 c4be 3189 ae3d
00000370: 2a2d 553d c41a 233f aa8b 753d 17ea 61be
00000380: e952 0e3e 142c a4bd 3077 763e f361 95be
00000390: 0880 2c3f db09 333e 1ed0 303d 8c80 0e3d
000003a0: f540 b3be 3947 863d ebf6 c7bd 68c1 debc
000003b0: 6f29 373f 3762 d5be c0cf d0bc 0954 9dbe
000003c0: c7f2 db3e cd7a 64be dad8 0bbf ae9e 2cbb
000003d0: d8ac 9ebe ec36 72bf 864a 80bb c933 f8be
000003e0: 270f bb3e 3a19 013e e86b 3d3e 42b5 95bc
000003f0: 8b90 913e e5c4 ccbe 6042 cabd 7c35 4dbe

fuser.input_layer.bias f4 [64]
0.059291862 -0.0012655902 -0.5526458 0.16910496 -0.019163067 0.6237129 0.030649034 0.057363402
0.079086676 -0.014771452 0.0585843 0.017793776 0.016363187 -0.10155566 -0.07821542 0.000639844
0.08368635 -0.053248655 0.06742546 -0.34516153 0.0011925081 0.087965995 -0.086675376 0.007348343
0.14237992 -0.065138936 -0.06396517 0.06894145 0.33178455 0.004375548 0.35685408 -0.020564783
0.37593046 -0.093872026 -0.06993667 0.025664391 -0.02976386 -0.58566046 -0.121025465 0.22520782
0.08001466 -0.08405829 0.22911413 0.14171405 -0.1711801 -0.06095369 0.0838425 -0.17651975
0.2951786 -0.41385087 0.096354604 0.004559934 -0.053143304 -0.076360166 -0.17649186 -0.17500842
0.057390578 0.053308576 -0.23607467 0.1019502 0.01902921 0.093443096 -0.0050916392 0.3370756
00000000: 06dc 723d 29e2 a5ba 327a 0dbf da29 2d3e
00000010: ddfb 9cbc a6ab 1f3f af13 fb3c e3f5 6a3d
00000020: 32f8 a13d f603 72bc 17f6 6f3d 41c4 913c
00000030: 170c 863c 6afc cfbd 682f a0bd 34bb 273a
00000040: c063 ab3d 431b 5abd 5c16 8a3d 03b9 b0be
00000050: ef4d 9c3a 8427 b43d dc82 b1bd 5eca f03b
00000060: 0bcc 113e 9067 85bd 2c00 83bd 2d31 8d3d
00000070: aadf a93e c260 8f3b 94b5 b63e 7a77 a8bc
00000080: f579 c03e fa3f c0bd f53a 8fbd 213e d23c
00000090: 57d3 f3bc d8ed 15bf 33dc f7bd e19c 663e
000000a0: bade a33d c126 acbd e59c 6a3e 7d1d 113e
000000b0: d649 2fbe 94aa 79bd 9eb5 ab3d 98c1 34be
000000c0: a621 973e 43e4 d3be 9055 c53d 806b 953b
000000d0: cbac 59bd b862 9cbd 48ba 34be 6835 33be
000000e0: 6212 6b3d 185a 5a3d 8fbd 71be 44cb d03d
000000f0: 25e3 9b3c 185f bf3d c4d7 a6bb 2c95 ac3e

fuser.layers.0.input_layer.0.weight f4 [256, 64]
0.73610574 -0.09118386 -0.099130794 0.02000865 0.063769996 -0.4386154 0.37226248 -0.41471973
0.41347152 -0.12955287 -0.054313388 -0.6845403 -0.26639488 0.25418103 -0.38074693 0.50245184
0.25875622 0.8554151 -0.0030875627 0.42146254 -0.27569664 0.071097724 -0.37458134 -0.451223
0.05194213 -0.13971971 0.39380834 -0.012354817 0.05693194 -1.1880671 -0.005756831 -0.08882212
0.06601411 0.48782596 -0.6105926 0.6602202 -0.2113784 0.660537 0.92099345 -0.36879107
0.14243227 0.25348428 -0.38966262 0.117562145 0.7656578 -0.37490147 -0.34445414 0.76195717
1.6068121 0.26879662 -0.015139051 -0.046235293 -0.12921295 -0.05638099 -0.9643994 2.45707
0.49149084 -0.74830955 -0.33924326 0.20619738 -0.11883887 0.45171878 0.25703776 2.1762695
-0.8214388 -0.040513083 -0.029004425 0.32797498 -0.5270548 -0.32417956 -0.573827 -0.053557534
0.53312254 0.08380448 0.14332207 0.32841143 0.2312906 0.66054964 0.25185618 -0.25726804
0.38185084 0.015597922 0.37669942 -0.7155474 0.12824136 0.14277792 -0.14660111 2.610835
0.061748266 0.1367312 0.1777078 0.2865979 -0.82047606 1.048097 1.1660249 -0.09667889
-1.6758827 0.09425276 0.3241465 0.9314933 0.09911877 -0.32037014 0.5841273 0.83378434
0.19964087 0.2868075 -1.0897213 0.32487175 1.0226192 0.29092842 -0.8151263 -0.22792925
-1.1578116 0.46586663 0.06473721 -0.012784481 -0.13098639 0.13301145 -0.13975817 0.3472014
-0.08164068 -0.080697134 0.21507296 -0.21394494 0.51073235 0.19284354 0.055274006 -0.72876906
0.17447175 -0.109167434 -0.4231971 0.351567 0.110340156 -0.4326802 -1.6331637 -0.468174
1.6900475 -0.35434806 0.62382865 1.1908274 0.47872618 1.8252605 0.18616062 0.5133558
0.12961073 0.11486476 -0.3322167 1.1669072 0.15437113 -0.2657024 0.6832567 0.38253888
0.09096579 -0.24366574 -0.88150996 -0.024209397 0.5068922 -0.83835816 0.120828554 -0.052151863
0.6824461 -0.14956449 0.022199381 0.4978253 0.45663288 0.58662456 0.37652487 0.8299718
-0.19179814 0.2294109 -0.7940974 0.28095895 -0.35322198 -0.39713606 0.36181733 0.34153214
0.079693444 -0.5696736 -0.15988755 0.36876535 0.3130844 -0.32396582 0.63877314 -0.5237889
0.29314715 0.035616413 0.2570282 0.752363 0.0550995 -0.85877305 0.3129393 0.020033376
0.41317123 -0.07350469 -0.40012282 -0.5162592 -0.23434019 -1.5672642 0.7761246 0.13244133
0.60943747 0.16667299 -0.5885119 -0.050521303 -0.09751469 -0.9641572 -0.20216145 0.14608432
-0.2202352 -0.0101835225 0.008844356 0.2783116 -0.8834803 -0.123529665 -0.02648693 -0.4051715
0.29176217 -0.376629 0.94987386 -0.101322144 0.64871925 1.3141991 -0.5186705 0.2569425
0.68025684 0.21207677 -1.2782156 -0.98492634 -0.1787318 1.1767043 -0.2656234 -0.82883894
0.18649612 -0.11371101 0.5921996 0.25928354 0.68797827 -0.21923754 -0.35111758 0.5164505
0.30326152 0.32521763 -0.15979427 0.0021541251 -0.35382214 0.57372105 -1.2532551 1.1434761
-0.2262369 -0.26233387 -0.025848432 0.39799285 -0.08605204 0.6729688 0.42019454 1.0758249
00000000: 6d71 3c3f 9bbe babd 1605 cbbd 2ee9 a33c
00000010: d899 823d 3392 e0be 3099 be3e 2556 d4be
00000020: 8ab2 d33e 82a9 04be b777 5ebd 083e 2fbf
00000030: e964 88be 0424 823e 43f1 c2be afa0 003f
00000040: b27b 843e 7cfc 5a3f b558 4abb f0c9 d73e
00000050: 1c28 8dbe af9b 913d 20c9 bfbe b306 e7be
00000060: 45c1 543d af12 0fbe 3fa1 c93e dc6b 4abc
00000070: 7731 693d 9512 98bf cca3 bcbb 5fe8 b5bd
00000080: 6832 873d 53c4 f93e cc4f 1cbf 3104 293f
00000090: 9473 58be f418 293f 3ac6 6b3f 2fd2 bcbe
000000a0: c4d9 113e b1c8 813e dc81 c7be 6cc4 f03d
000000b0: 2602 443f 16f3 bfbe 4b5c b0be a00f 433f
000000c0: 05ac cd3f b69f 893e c809 78bc 3861 3dbd
000000d0: 6650 04be c1ef 66bd e1e2 76bf a340 1d40
000000e0: b0a4 fb3e 3791 3fbf 4bb1 adbe 6825 533e
000000f0: cb61 f3bd af47 e73e 749a 833e 0048 0b40
00000100: d049 52bf 0cf1 25bd b09a edbc 56ec a73e
00000110: 10ed 06bf ddfa a5be 54e6 12bf 255f 5bbd
00000120: b87a 083f afa1 ab3d 05c3 123e 8b25 a83e
00000130: 71d7 6c3e c819 293f 4bf3 803e a3b8 83be
00000140: f481 c33e 6d8e 7f3c bfde c03e 1d2e 37bf
00000150: b451 033e 6034 123e 9a1e 16be ec17 2740
00000160: c0eb 7c3d 4403 0c3e 09f9 353e f6bc 923e
00000170: b80a 52bf 0b28 863f 4e40 953f 95ff c5bd
00000180: 5383 d6bf 9707 c13d 88f6 a53e 5876 6e3f
00000190: c8fe ca3d 8e07 a4be 5e89 153f e472 553f
000001a0: a86e 4c3e 6fd8 923e fd7b 8bbf 9755 a63e
000001b0: 30e5 823f 92f4 943e 1eac 50bf 4966 69be
000001c0: 2c33 94bf 1286 ee3e f194 843d 0076 51bc
000001d0: 4c21 06be 2734 083e c41c 0fbe 62c4 b13e
000001e0: 3b33 a7bd 8a44 a5bd 163c 5c3e 6214 5bbe
000001f0: 5bbf 023f c778 453e ff66 623d 9c90 3abf
00000200: b9a8 323e 2d93 dfbd 4aad d8be 9700 b43e
00000210: 05fa e13d 4288 ddbe 820b d1bf 81b4 efbe
00000220: 7a53 d83f 1c6d b5be 3cb3 1f3f 086d 983f
00000230: 991b f53e 23a2 e93f e4a0 3e3e 496b 033f
00000240: adb8 043e 373e eb3d 4f18 aabe 375d 953f
00000250: 7713 1e3e 250a 88be e9e9 2e3f 23dc c33e
00000260: 464c ba3d 8383 79be a3aa 61bf c952 c6bc
00000270: b0c3 013f a49e 56bf f674 f73d 319d 55bd
00000280: cab4 2e3f 6f27 19be 7adb b53c f5e2 fe3e
00000290: c9cb e93e 072d 163f dec7 c03e 0879 543f
000002a0: bb66 44be b1ea 6a3e f849 4bbf dad9 8f3e
000002b0: 83d9 b4be 6b55 cbbe 1f40 b93e 4ddd ae3e
000002c0: 5136 a33d 21d6 11bf 90b9 23be d0ce bc3e
000002d0: 994c a03e d9de a5be a386 233f 0817 06bf
000002e0: 6217 963e 84e2 113d 3399 833e dd9a 403f
000002f0: 03b0 613d 8dd8 5bbf 9439 a03e 091d a43c
00000300: 2e8b d33e a089 96bd e6dc ccbe 9029 04bf
00000310: e0f6 6fbe 1d9c c8bf 1ab0 463f b39e 073e
00000320: 1804 1c3f 53ac 2a3e b7a8 16bf 6def 4ebd
00000330: c8b5 c7bd 02d3 76bf 6903 4fbe 2197 153e
00000340: 5685 61be cad8 26bc ebe7 103c dc7e 8e3e
00000350: c42b 62bf 1ffd fcbd 1efb d8bc a472 cfbe
00000360: da61 953e 84d5 c0be ef2a 733f fc81 cfbd
00000370: 7712 263f ad37 a83f 97c7 04bf f88d 833e
00000380: 5025 2e3f a72a 593e 929c a3bf 2224 7cbf
00000390: 7805 37be 3f9e 963f caff 87be ca2e 54bf
000003a0: d7f8 3e3e 51e1 e8bd 659a 173f d0c0 843e
000003b0: 581f 303f ce7f 60be afc5 b3be 1a36 043f
000003c0: 1845 9b3e ed82 a63e 1ca1 23be 392c 0d3b
000003d0: 2d28 b5be 62df 123f aa6a a0bf 6d5d 923f
000003e0: a5aa 67be a050 86be 17c0 d3bc b8c5 cb3e
000003f0: 0d3c b0bd af47 2c3f bd23 d73e a1b4 893f

fuser.layers.0.input_layer.0.bias f4 [256]
0.051810235 -0.034943093 -0.011432063 -0.1123949 0.07642295 0.002437476 0.05171255 0.03672478
-0.0436998 0.12554272 0.058633544 -0.020073991 -0.08690816 -0.09796209 0.0893384 -0.091889575
-0.089374155 0.06394895 0.13880673 -0.030356513 0.15541543 0.061568215 -0.07914744 0.06273461
0.12081737 0.08929334 0.0730164 -0.15993589 0.08450344 0.0019854347 -0.08866626 -0.024698792
-0.08562326 -0.14856735 -0.0804203 -0.05011156 0.064659946 -0.09015305 0.11043292 -0.063629806
0.11436031 -0.09622787 -0.072182156 -0.10864791 -0.118859656 -0.130257 -0.1161452 0.02059152
-0.14500524 0.08024581 -0.105099015 -0.06430434 0.067674145 -0.0011367097 0.02154653 -0.12823932
-0.10486007 -0.03878431 0.12523127 -0.073584735 0.01881679 0.071426414 -0.022285169 0.05737837
0.020674814 -0.03557239 -0.08561364 -0.09870283 0.0651477 0.10267828 0.026819877 0.06959804
0.1310588 -0.096613444 0.037217565 0.058610003 -0.048969753 -0.0037390518 0.122434504 -0.024865184
-0.04717945 0.071411304 0.20463513 0.01154739 -0.103054285 0.1272996 -0.025890443 0.0195543
0.12390696 -0.035920244 -0.06302551 0.088100955 0.026815971 -0.001134309 0.0009420988 -0.0065855244
-0.057213847 0.028294057 0.07794915 0.053068567 0.06521669 -0.00095194473 -0.105436094 0.018598147
0.051769126 -0.029011866 0.08498142 0.035450146 0.086065084 -0.033934783 0.089131296 0.04492132
-0.092224404 -0.06631974 0.11419597 -0.08699413 0.10683607 -0.03940717 0.08542297 0.01239586
-0.10023693 0.030075606 0.072388545 0.108964175 0.07247032 -0.021201836 0.0483628 -0.084568046
0.024188256 -0.079527885 -0.087686405 -0.0781437 0.060396776 0.11757886 -0.105016924 0.112545185
-0.041298833 -0.059954923 0.05383017 -0.0037290254 -0.20981358 0.056681067 0.1169395 0.06744918
0.074703984 -0.10514648 -0.024403967 0.07522874 -0.08079025 0.047800697 -0.08198191 0.07033528
0.12479029 -0.13243255 0.026318138 0.075748056 -0.08568692 0.11926211 0.06707809 0.09782907
-0.01715348 0.13330555 0.05577195 0.054644726 0.07182975 0.026139973 -0.074327946 -0.015858518
0.06490156 0.07742651 0.07235413 -0.046729434 -0.07583645 -0.0013325281 -0.10686857 -0.045718472
0.027606042 0.11962717 -0.07969133 0.049562074 -0.097763956 -0.07454397 -0.044136845 -0.014734984
-0.055878375 0.020960625 0.108168036 0.032746002 -0.008897767 0.05256505 -0.010531476 0.008165579
-0.10012337 0.064020246 0.11357405 -0.10513005 -0.016325913 0.07245547 0.08054586 0.0050749513
-0.08503199 -0.057064917 0.016012669 -0.039193183 0.084176525 0.059734583 0.027419953 -0.006273597
0.035061687 -0.052054368 0.03639701 0.011349873 -0.090261795 0.1288167 0.10034095 -0.012208006
0.046534114 0.06347222 0.14947738 -0.05565352 0.09814323 0.101754 -0.07127816 -0.08155059
-0.034153856 -0.05749469 0.03858779 0.008363717 0.14028934 -0.029044839 0.027712297 0.018411258
-0.11018051 -0.09964232 -0.04733105 -0.001468986 -0.044515856 0.02241111 -0.031558417 0.08033994
0.11266594 0.032767966 -0.064080045 0.082995884 0.08186852 0.042341452 0.098145664 -0.09047601
0.04248896 0.057463232 -0.023280088 -0.04895154 -0.023321422 -0.06847724 0.036688592 -0.10968282
00000000: f836 543d 7d20 0fbd 8c4d 3bbc 4c2f e6bd
00000010: a383 9c3d 10be 1f3b 8ad0 533d b96c 163d
00000020: 90fe 32bd 458e 003e ba29 703d 3672 a4bc
00000030: e8fc b1bd 59a0 c8bd 0df7 b63d 9a30 bcbd
00000040: cc09 b7bd abf7 823d 5a23 0e3e 39ae f8bc
00000050: 3925 1f3e f42e 7c3d 0e18 a2bd 017b 803d
00000060: 196f f73d 6ddf b63d 9f89 953d 3cc6 23be
00000070: 2410 ad3d 111e 023b a896 b5bd 1f55 cabc
00000080: 3f5b afbd 0a22 18be 66b3 a4bd c741 4dbd
00000090: 6f6c 843d 2aa2 b8bd a82a e23d 5850 82bd
000000a0: bd35 ea3d 1e13 c5bd 3dd4 93bd cc82 debd
000000b0: b16c f3bd 1762 05be 89dd edbd 8caf a83c
000000c0: 417c 14be ea57 a43d 273e d7bd feb1 83bd
000000d0: be98 8a3d a6fd 94ba 5982 b03c 2b51 03be
000000e0: e0c0 d6bd 4cdc 1ebd a03c 003e 98b3 96bd
000000f0: ab25 9a3c 0348 923d 638f b6bc 9505 6b3d
00000100: 3a5e a93c 5bb4 11bd 3456 afbd b624 cabd
00000110: 286c 853d fd48 d23d 5cb5 db3c 6b89 8e3d
00000120: 4734 063e 45dd c5bd 7271 183d 0b11 703d
00000130: 8294 48bd e10a 75bb f1be fa3d 12b2 cbbc
00000140: 3d3f 41bd 1740 923d df8b 513e 4431 3d3c
00000150: 200e d3bd d45a 023e 3218 d4bc 5730 a03c
00000160: efc2 fd3d 1b21 13bd 8513 81bd 466e b43d
00000170: 2bad db3c 18ad 94ba 2ef7 763a 62cb d7bb
00000180: 1159 6abd f0c8 e73c cea3 9f3d 6d5e 593d
00000190: 5490 853d ee8b 79ba e1ee d7bd 245b 983c
000001a0: dd0b 543d 4baa edbc bd0a ae3d 2c34 113d
000001b0: e442 b03d 33ff 0abd 788a b63d 6bff 373d
000001c0: 26e0 bcbd a5d2 87bd 94df e93d fa29 b2bd
000001d0: dfcc da3d 6a69 21bd 3df2 ae3d 0118 4b3c
000001e0: 0549 cdbd 1e61 f63c 7240 943d 9c28 df3d
000001f0: 526b 943d 79af adbc 1218 463d 0332 adbd
00000200: 7326 c63c 84df a2bd ee94 b3bd ce09 a0bd
00000210: 9c62 773d 2fcd f03d 1d13 d7bd 177e e63d
00000220: f728 29bd 4b93 75bd 067d 5c3d aa62 74bb
00000230: 5fd9 56be 682a 683d fa7d ef3d cc22 8a3d
00000240: 67fe 983d 0a57 d7bd d4ea c7bc 8711 9a3d
00000250: 5c75 a5bd aaca 433d 22e6 a7bd f10b 903d
00000260: 0d92 ff3d 669c 07be 2399 d73c cc21 9b3d
00000270: a07c afbd b13f f43d 3d60 893d 9c5a c83d
00000280: 7485 8cbc 4081 083e 2171 643d 26d3 5f3d
00000290: 7a1b 933d 7f23 d63c 4039 98bd b9e9 81bc
000002a0: 1ceb 843d ca91 9e3d 672e 943d 5d67 3fbd
000002b0: 2450 9bbd 39a8 aeba e9dd dabd 4b43 3bbd
000002c0: 1126 e23c 17ff f43d 3535 a3bd 9a01 4b3d
000002d0: 7838 c8bd 82aa 98bd d6c8 34bd 016b 71bc
000002e0: b9e0 64bd 9eb5 ab3c 3487 dd3d ac20 063d
000002f0: f1c7 11bc 734e 573d 368c 2cbc ecc8 053c
00000300: 7b0d cdbd 0c1d 833d 8399 e83d 6c4e d7bd
00000310: ecbd 85bc 8963 943d 3af5 a43d c74b a63b
00000320: 4125 aebd e7bc 69bd 002d 833c 0889 20bd
00000330: be64 ac3d 40ac 743d cf9f e03c bf92 cdbb
00000340: d89c 0f3d f636 55bd 0815 153d d1f4 393c
00000350: 2ddb b8bd 86e8 033e 8e7f cd3d 1704 48bc
00000360: 8e9a 3e3d b9fd 813d 9910 193e f2f4 63bd
00000370: 51ff c83d 6764 d03d 49fa 91bd ff03 a7bd
00000380: eae4 0bbd 8d7f 6bbd 3b0e 1e3d f907 093c
00000390: 02a8 0f3e 71ef edbc e604 e33c 35d3 963c
000003a0: 52a6 e1bd 4611 ccbd 34de 41bd fe8a c0ba
000003b0: 4256 36bd 8197 b73c 6643 01bd 4489 a43d
000003c0: 66bd e63d b437 063d 663c 83bd bff9 a93d
000003d0: afaa a73d 3b6e 2d3d 9800 c93d 7d4b b9bd
000003e0: e708 2e3d 915e 6b3d e2b5 bebc 6981 48bd
000003f0: 910c bfbc cc3d 8cbd c746 163d 63a1 e0bd

fuser.layers.0.input_layer.1.weight f4 [256]
0.7428444 1.001718 0.9175102 0.84101886 0.840649 0.7453955 0.9166184 0.8427639
1.0288497 0.8536283 0.917511 0.98414075 0.92238057 0.7803499 1.0029587 0.7589493
1.0388418 0.6874483 0.774602 0.95161176 0.8518488 0.9184889 0.8452906 0.79706925
0.8378135 0.77513784 0.81373066 0.68906313 0.7403524 0.9939518 0.6809836 0.8700132
0.8227103 0.8265389 0.7839376 0.87237084 0.7985557 0.8714366 0.8822073 0.9142728
0.86780655 0.8403416 1.002178 0.7204157 1.0896508 0.90212774 0.77810085 0.7553767
0.80245787 0.79538316 0.8830272 0.68923 0.76940256 0.84858 0.79007757 0.9107976
0.79346484 1.0152885 0.9249053 0.8095247 0.7293217 0.8807536 1.0120447 0.77943254
0.9228579 0.9181147 0.7683985 0.9262497 0.7376962 0.71428823 0.86036927 0.8101535
0.8512607 0.9226698 0.6373129 0.788681 0.8114921 0.81558543 0.86938244 0.878814
1.0464422 0.7671127 0.74753815 0.775122 0.87915426 0.8446973 0.70952654 0.80045605
0.8536783 0.8999896 0.7159607 0.75438535 0.715932 0.77766675 0.9221275 0.6757452
0.94226253 0.71838033 0.83840847 0.7437441 0.7536699 0.7817281 0.9550494 0.99476373
0.8095381 0.82715863 0.9552298 0.90429515 0.78505516 0.98172987 0.8654821 0.71728873
0.6604193 0.8165814 1.0449629 0.8388431 0.8379179 0.7882639 0.9136794 0.9357311
0.82635814 0.93314785 0.750594 0.92752016 0.77227753 0.73407036 0.8594002 1.0187119
0.77673763 0.9698665 0.79883045 0.93794066 0.8616644 0.8665892 0.8405438 0.74582964
0.76086164 0.8395168 0.82106036 0.85614634 0.7704704 0.9450263 0.90127206 0.69812983
0.7043314 0.81971043 0.9960161 0.8337241 0.90634906 1.0748551 0.78681946 0.85350263
0.8220521 0.9286642 0.62211585 0.80962616 0.8864711 0.83830583 0.8035612 0.88068485
0.79595405 0.78438777 0.9348785 0.722517 0.7885733 0.826167 0.73628217 0.8548416
0.9193059 0.6813388 0.89987636 0.79794955 1.1415396 0.9077307 0.86653626 0.72704667
0.8596469 0.8781268 0.9884559 0.73674273 0.81268895 0.8767767 0.80134934 0.9230658
0.8098265 0.9332321 1.0594062 0.9743924 0.874854 0.884369 0.86015284 0.9425762
0.95349956 0.84236443 0.96874887 1.0395371 0.80991113 0.8087076 0.8511692 0.78721124
0.7430917 0.8981513 0.9492289 0.7380977 0.7945182 0.77619886 0.72744083 0.78474027
0.7566787 0.9096712 0.8438215 1.0331501 0.81102294 0.82234085 0.86511445 1.0173305
0.815587 0.69542074 0.8685942 0.95692 0.8392472 0.95943487 0.8023747 0.94113994
0.68510276 1.0046005 1.022562 0.8414056 0.8240203 0.906125 1.0448817 0.70638025
0.80547106 0.9361698 0.8466592 0.7261207 0.66855407 0.7328631 0.9298464 0.8119512
0.8282148 0.8827719 1.0128669 0.73666644 0.7075026 0.85589355 0.86564827 0.86587405
0.89188534 0.8007102 0.8498615 0.99850476 0.8558959 1.0076982 0.92512333 0.98721164
00000000: 0d2b 3e3f 4c38 803f f3e1 6a3f 034d 573f
00000010: c634 573f 3dd2 3e3f 81a7 6a3f 60bf 573f
00000020: 59b1 833f 6287 5a3f 00e2 6a3f a6f0 7b3f
00000030: 2221 6c3f 03c5 473f f360 803f 804a 423f
00000040: c5f8 843f 9dfc 2f3f 514c 463f d49c 733f
00000050: c312 5a3f 1722 6b3f f764 583f bb0c 4c3f
00000060: f27a 563f 6f6f 463f a750 503f 7166 303f
00000070: bc87 3d3f a073 7e3f f154 2e3f 2fb9 5e3f
00000080: 249d 523f 0e98 533f 22b0 483f b253 5f3f
00000090: 256e 4c3f 7816 5f3f 56d8 613f c80d 6a3f
000000a0: 9228 5e3f a120 573f 5e47 803f 2a6d 383f
000000b0: ad79 8b3f d8f1 663f 9e31 473f 5e60 413f
000000c0: e16d 4d3f 3b9e 4b3f 120e 623f 6171 303f
000000d0: 91f7 443f 8a3c 593f 8642 4a3f 082a 693f
000000e0: 8320 4b3f f9f4 813f 98c6 6c3f 033d 4f3f
000000f0: d4b4 3a3f 1179 613f ae8a 813f e488 473f
00000100: 6a40 6c3f 9109 6b3f c4b5 443f b31e 6d3f
00000110: a8d9 3c3f 98db 363f 2941 5c3f 3866 4f3f
00000120: 39ec 593f 1734 6c3f f026 233f ffe6 493f
00000130: f2bd 4f3f 35ca 503f d98f 5e3f f4f9 603f
00000140: d1f1 853f 7f61 443f a95e 3f3f 656e 463f
00000150: 4110 613f 153e 583f 88a3 353f b0ea 4c3f
00000160: a98a 5a3f b865 663f 3349 373f 661f 413f
00000170: 5247 373f 2b15 473f 8c10 6c3f a3fd 2c3f
00000180: 1e38 713f c6e7 373f f0a1 563f 0366 3e3f
00000190: 83f0 403f 551f 483f 1e7e 743f d6a8 7e3f
000001a0: e43d 4f3f abc0 533f f189 743f e37f 673f
000001b0: 60f9 483f a652 7b3f 3c90 5d3f 3ca0 373f
000001c0: 3d11 293f 7b0b 513f 58c1 853f 6cbe 563f
000001d0: ca81 563f aacb 493f e5e6 693f 138c 6f3f
000001e0: 358c 533f c7e2 6e3f ee26 403f f671 6d3f
000001f0: fbb3 453f 09ec 3b3f a701 5c3f 2765 823f
00000200: 47d8 463f 2c49 783f 2780 4c3f e11c 703f
00000210: 0a96 5c3f cad8 5d3f e12d 573f b1ee 3e3f
00000220: d4c7 423f 93ea 563f 0331 523f 682c 5b3f
00000230: 8c3d 453f 3eed 713f c4b9 663f a3b8 323f
00000240: 104f 343f 8bd8 513f e9fa 7e3f f16e 553f
00000250: 7e06 683f da94 893f 006d 493f 267f 5a3f
00000260: 0272 523f f0bc 6d3f fc42 1f3f a943 4f3f
00000270: c5ef 623f 369b 563f 30b6 4d3f 9074 613f
00000280: a5c3 4b3f a3cd 483f 3354 6f3f e0f6 383f
00000290: f1df 493f ae7f 533f fd7c 3c3f e6d6 5a3f
000002a0: a257 6b3f 386c 2e3f 4c5e 663f 6c46 4c3f
000002b0: f81d 923f 0a61 683f 52d5 5d3f bb1f 3a3f
000002c0: d211 5c3f ebcc 603f 720b 7d3f 2c9b 3c3f
000002d0: 620c 503f 7074 603f 3b25 4d3f 0a4e 6c3f
000002e0: ca50 4f3f 4de8 6e3f 9f9a 873f c871 793f
000002f0: 6ff6 5f3f 0266 623f fa32 5c3f ad4c 713f
00000300: 8c18 743f 32a5 573f edff 773f 8d0f 853f
00000310: 5656 4f3f 7607 4f3f 3ae6 593f ad86 493f
00000320: 423b 3e3f 3eed 653f aa00 733f f9f3 3c3f
00000330: 8b65 4b3f f8b4 463f 9039 3a3f bde4 483f
00000340: b2b5 413f 36e0 683f b004 583f 433e 843f
00000350: 339f 4f3f ee84 523f 2478 5d3f e337 823f
00000360: 4fca 503f 1807 323f 315c 5e3f b6f8 743f
00000370: e8d8 563f 869d 753f 6e68 4d3f 8cee 703f
00000380: e562 2f3f c096 803f 50e3 823f 5b66 573f
00000390: fff2 523f cff7 673f afbe 853f 56d5 343f
000003a0: 5a33 4e3f d3a8 6f3f a8be 583f 0ce3 393f
000003b0: 5c26 2b3f eb9c 3b3f 6a0a 6e3f 09dc 4f3f
000003c0: e305 543f 57fd 613f 9fa5 813f 2c96 3c3f
000003d0: e41e 353f d71b 5b3f 209b 5d3f eca9 5d3f
000003e0: 9952 643f 58fb 4c3f 8690 593f 029e 7f3f
000003f0: fe1b 5b3f 41fc 803f e2d4 6c3f e7b9 7c3f

fuser.layers.0.input_layer.1.bias f4 [256]
-0.5838282 -0.74018896 -1.1289053 -1.0705566 -0.9430854 -0.75449324 -1.2386222 -0.7924993
-1.1763115 -1.1064438 -0.7660718 -1.1139354 -0.7146635 -0.6449047 -1.2292049 -0.9053669
-1.1305777 -0.5622041 -0.6990711 -1.1646702 -1.0655253 -1.015303 -0.88592917 -0.97069144
-1.0560832 -0.7186792 -0.9949612 -0.57363635 -0.5795718 -0.94644624 -0.5315598 -0.77367467
-0.55143106 -1.098144 -0.93471557 -0.83653814 -0.93022335 -1.1286277 -0.74285716 -0.871737
-0.85123235 -0.80012006 -1.4798422 -0.7803196 -1.1304467 -0.98832756 -0.69126433 -0.48093212
-0.7763107 -0.76626533 -0.84385 -0.5934556 -0.71183044 -0.8723046 -0.8125831 -1.1531997
-0.8632026 -1.0955904 -1.2117474 -0.86754 -0.8972126 -0.7824873 -1.4211484 -0.50102377
-1.255564 -0.76638275 -0.68850714 -1.007016 -0.8068426 -0.4850697 -0.80521476 -0.92877305
-0.9768312 -1.2048826 -0.38177383 -1.157684 -0.73102444 -0.78429216 -0.89688635 -0.8191753
-1.0655648 -0.987204 -0.7534224 -0.3109418 -0.8881353 -1.0175977 -0.64200145 -0.7257756
-1.2071813 -0.7686043 -0.8529023 -0.63998103 -0.7261523 -0.68695027 -0.9441272 -0.6068628
-1.123052 -0.90257955 -0.6803407 -0.79045403 -0.6396256 -0.7721356 -0.9537522 -1.3389882
-0.9304769 -1.134052 -0.9679167 -0.77696764 -0.9491062 -0.9632069 -1.0441518 -0.8295241
-0.7601179 -0.6261947 -1.0807005 -0.71553564 -0.6613635 -0.6316781 -0.8132703 -1.1502011
-0.9397287 -0.7995062 -0.66847503 -1.0792016 -1.0242075 -0.5207679 -0.808817 -1.090485
-0.5910296 -1.0607162 -1.1996931 -0.707959 -0.7467823 -0.9035937 -0.8996932 -0.76693714
-1.0918092 -0.96165645 -0.7366236 -1.1050991 -0.91961455 -1.0311327 -0.94023025 -0.49313378
-0.80813026 -1.2015553 -1.1858315 -0.79583025 -0.9673461 -1.0696006 -0.989282 -0.6815832
-1.162125 -0.865916 -0.6165075 -0.6877852 -0.72589564 -0.7742983 -0.627796 -0.7951206
-1.0246041 -0.7523299 -0.75267434 -0.785271 -0.8980284 -0.85428387 -0.5574879 -1.0765952
-0.9896374 -0.63575524 -0.79045326 -0.6875684 -1.0412594 -0.793144 -0.8980786 -0.76754737
-0.88048846 -1.1618098 -1.032771 -0.97938484 -0.80838543 -0.9876846 -0.75446224 -0.82899123
-1.3342128 -0.8666428 -1.4423429 -0.9561197 -1.0010735 -0.81877506 -0.72644407 -0.8834213
-1.1042925 -0.56237185 -1.2583073 -1.0289506 -1.01856 -0.8699954 -0.7345789 -0.75229084
-0.8769737 -1.1322398 -0.97675717 -0.9857632 -1.1497728 -0.9567212 -0.82580143 -0.9872932
-0.7762368 -0.622481 -1.0104474 -1.2749931 -0.9136956 -0.8504442 -0.7665539 -1.0527607
-0.82998884 -0.99383074 -0.698363 -0.8614374 -0.771607 -1.010286 -0.83770853 -1.0119197
-0.67774886 -0.85444146 -1.0798 -0.8538216 -0.7141497 -0.92963713 -1.0396963 -0.8734223
-0.4549714 -0.8457638 -1.1762941 -0.7659449 -0.73100907 -1.0013574 -0.94045377 -0.6234114
-0.7396422 -0.92712617 -1.2321302 -0.549599 -0.66480184 -0.8010945 -0.83307683 -0.918081
-1.1417929 -0.7400954 -1.0588809 -1.1101375 -0.96931535 -1.2802202 -0.84937537 -0.9721967
00000000: c475 15bf 067d 3dbf f87f 90bf 0008 89bf
00000010: 0b6e 71bf 7826 41bf 2c8b 9ebf 3ce1 4abf
00000020: 6091 96bf f39f 8dbf 481d 44bf 6f95 8ebf
00000030: 30f4 36bf 7918 25bf 9656 9dbf 20c6 67bf
00000040: c5b6 90bf 9cec 0fbf 53f6 32bf ea13 95bf
00000050: 2263 88bf 73f5 81bf 41cc 62bf 3c7f 78bf
00000060: bc2d 87bf 5cfb 37bf c7b5 7ebf d5d9 12bf
00000070: d15e 14bf 4d4a 72bf 4e14 08bf 8b0f 46bf
00000080: 962a 0dbf fc8f 8cbf 8549 6fbf 5d27 56bf
00000090: 1e23 6ebf df76 90bf e32b 3ebf 282a 5fbf
000000a0: 5dea 59bf abd4 4cbf 786b bdbf 06c3 47bf
000000b0: 7ab2 90bf 0903 7dbf b3f6 30bf bc3c f6be
000000c0: 4cbc 46bf f729 44bf 8e06 58bf b5ec 17bf
000000d0: 853a 36bf 5b4f 5fbf 7205 50bf 0c9c 93bf
000000e0: d8fa 5cbf 4e3c 8cbf 8a1a 9bbf 1a17 5ebf
000000f0: baaf 65bf 1651 48bf 31e8 b5bf 1843 00bf
00000100: 52b6 a0bf a931 44bf 0142 30bf e6e5 80bf
00000110: 3d8d 4ebf 0e5b f8be 8e22 4ebf 12c4 6dbf
00000120: 9c11 7abf 9839 9abf dc77 c3be fd2e 94bf
00000130: 6b24 3bbf 5fc7 48bf 589a 65bf 79b5 51bf
00000140: 6d64 88bf 67b9 7cbf 4ae0 40bf c333 9fbe
00000150: d65c 63bf a440 82bf 355a 24bf 6ecc 39bf
00000160: eb84 9abf 40c3 44bf ce57 5abf ccd5 23bf
00000170: 1ee5 39bf f9db 2fbf 52b2 71bf 5c5b 1bbf
00000180: 2bc0 8fbf 740f 67bf cf2a 2ebf 325b 4abf
00000190: 81be 23bf aeaa 45bf 1b29 74bf f763 abbf
000001a0: bc33 6ebf 9e28 91bf 64c9 77bf 5ae7 46bf
000001b0: a0f8 72bf ba94 76bf c4a6 85bf b15b 54bf
000001c0: 1697 42bf 4c4e 20bf 6554 8abf 582d 37bf
000001d0: 1e4f 29bf a8b5 21bf 7b32 50bf ca39 93bf
000001e0: 0f92 70bf 70ac 4cbf 2e21 2bbf 4723 8abf
000001f0: 3b19 83bf 0c51 05bf a20e 4fbf 0395 8bbf
00000200: b74d 17bf 8cc5 87bf 8b8f 99bf cd3c 35bf
00000210: 202d 3fbf eb51 67bf 4b52 66bf fe55 44bf
00000220: 67c0 8bbf 1e2f 76bf 5d93 3cbf e373 8dbf
00000230: dc6b 6bbf 28fc 83bf eeb2 70bf 087c fcbe
00000240: a0e1 4ebf 90cc 99bf 54c9 97bf 88bb 4bbf
00000250: fea3 77bf ace8 88bf 9641 7dbf 3d7c 2ebf
00000260: 83c0 94bf acac 5dbf 6fd3 1dbf b112 30bf
00000270: 4cd4 39bf 6a38 46bf 3db7 20bf 068d 4bbf
00000280: 3a26 83bf b198 40bf 44af 40bf 8507 49bf
00000290: 30e5 65bf 59b2 5abf 87b7 0ebf dfcd 89bf
000002a0: e058 7dbf dbc0 22bf 255b 4abf 7c04 30bf
000002b0: fd47 85bf 7c0b 4bbf 7be8 65bf fc7d 44bf
000002c0: b167 61bf 2fb6 94bf d731 84bf f7b8 7abf
000002d0: 59f2 4ebf e6d8 7cbf 7024 41bf c538 54bf
000002e0: 7cc7 aabf 4ddc 5dbf b19e b8bf 43c4 74bf
000002f0: 2d23 80bf 3e9b 51bf 3df8 39bf e627 62bf
00000300: 7559 8dbf 9af7 0fbf 3710 a1bf a7b4 83bf
00000310: 2d60 82bf 05b8 5ebf 5d0d 3cbf 2296 40bf
00000320: 5981 60bf 3ced 90bf c20c 7abf fa5a 7cbf
00000330: c12b 93bf aeeb 74bf b967 53bf 3fbf 7cbf
00000340: 74b7 46bf ea5a 1fbf 5756 81bf f932 a3bf
00000350: f4e7 69bf b6b6 59bf e03c 44bf ddc0 86bf
00000360: 267a 54bf b16b 7ebf ebc7 32bf 2987 5cbf
00000370: 0988 45bf 0d51 81bf 1174 56bf 9686 81bf
00000380: f380 2dbf adbc 5abf e336 8abf 0d94 5abf
00000390: 84d2 36bf b3fc 6dbf c514 85bf 9b98 5fbf
000003a0: 03f2 e8be fa83 58bf ce90 96bf f714 44bf
000003b0: 6923 3bbf 7b2c 80bf 94c1 70bf e497 1fbf
000003c0: 3159 3dbf 2458 6dbf 71b6 9dbf 85b2 0cbf
000003d0: 7430 2abf 8714 4dbf 8644 55bf 5b07 6bbf
000003e0: 4526 92bf e476 3dbf 6989 87bf fc18 8ebf
000003f0: 0d25 78bf 41de a3bf aa70 59bf e2e1 78bf

fuser.layers.0.input_layer.1.running_mean f4 [256]
-39.709423 19.509449 -26.381731 8.349565 19.78365 10.666108 -22.637114 -36.68808
6.9244723 -14.450501 -8.080934 -4.8202753 -12.258636 -0.70001394 31.17982 14.260741
-1.1432972 63.50795 54.849 7.1312995 -53.18378 -4.1983175 6.6597 -2.1495316
-18.836515 -15.078966 -52.79946 57.937744 -30.312567 -17.082998 -72.65357 14.697018
-8.813053 89.10187 -2.1275678 3.7841094 -2.503646 -35.194363 -22.094467 8.438756
5.873123 7.0583987 37.582283 9.269915 31.541264 -3.3630817 -5.038501 -3.4464605
11.730873 -9.268194 16.69449 -11.407522 26.140015 -17.370327 -22.857786 46.562744
27.16207 -18.94878 23.559505 -25.400072 20.136023 -15.639247 29.383715 -15.309302
9.001394 24.308023 20.184269 -3.4172685 -38.894905 -12.925588 -48.344162 17.573708
-39.812893 6.411172 91.30481 -10.028503 -48.55512 -5.539999 -60.446148 -24.54364
-2.8982017 -15.488953 -0.87629026 -16.172943 31.436003 -52.833523 64.76548 -9.171108
-13.83886 18.257168 50.44682 17.152428 1.955482 0.15094084 2.9782748 -70.731735
58.786015 7.1566243 5.249094 -21.496017 21.36427 15.268702 35.15834 -19.788834
-36.243122 32.4868 -2.7943356 -8.828039 -72.86234 -4.2475386 -27.576393 -54.080612
21.954956 -17.511232 -29.376974 -13.076471 -19.886486 -2.1424527 -9.067186 23.97959
14.2529955 -28.552435 11.875052 11.10328 -18.71773 -28.193438 -1.0803436 35.80503
13.050381 11.156959 -8.647916 -11.3786745 1.9572978 32.096848 -8.367292 -25.39199
-17.932938 9.851583 12.0282545 -11.074453 42.854954 -22.62655 50.67574 7.5218825
27.454817 -13.961079 6.8005185 15.861401 2.1295738 35.441536 10.212691 9.280204
27.133823 -4.0497193 -26.199875 -8.6720085 -16.220222 20.503342 3.7446148 -0.19283392
-50.167454 -49.77939 -7.605432 16.430784 -29.040825 10.880526 77.64575 8.126827
-32.723454 -65.3052 -7.7338247 -21.13282 22.928442 -6.3020816 -11.874403 47.215298
7.7580953 -10.560188 -18.73354 -36.04619 10.656163 10.783474 -36.216267 35.86197
-18.348 -28.06965 2.955914 -21.153912 7.61205 -25.592907 50.386715 7.1001577
4.5559635 -45.14609 18.965395 21.880205 43.48008 -26.77945 -29.80181 -57.82353
20.455812 3.085703 -49.965183 -77.62765 22.266418 -22.122005 -7.786964 41.309525
-10.907674 -26.830564 29.106976 -12.658807 -22.246769 -18.983217 -13.776082 -40.323
-32.169956 -58.4094 16.401522 36.35853 0.1776853 5.7298894 -0.63520885 74.29495
37.32099 3.233175 17.983185 -15.022723 -8.011889 -14.229253 28.772179 -46.932938
-39.3983 -41.342716 -10.160763 -31.238995 16.576775 23.030506 2.6372247 -2.4139652
52.315254 -28.109804 30.478312 -20.99685 -50.83215 -0.28580007 -25.518415 -3.9445121
52.116764 5.13615 -3.3000908 27.664549 -28.148607 7.2955575 -9.110973 38.82023
00000000: 73d6 1ec2 5a13 9c41 c90d d3c1 d197 0541
00000010: ea44 9e41 61a8 2a41 cf18 b5c1 98c0 12c2
00000020: 4795 dd40 4135 67c1 814b 01c1 b23f 9ac0
00000030: 6023 44c1 1d34 33bf 4570 f941 ff2b 6441
00000040: 9057 92bf 2408 7e42 6065 5b42 9b33 e440
00000050: 31bc 54c2 9e58 86c0 431c d540 ed91 09c0
00000060: 2fb1 96c1 7243 71c1 a632 53c2 40c0 6742
00000070: 2380 f2c1 fba9 88c1 a14e 91c2 fc26 6b41
00000080: 4402 0dc1 2834 b242 122a 08c0 d92e 7240
00000090: bc3b 20c0 07c7 0cc2 78c1 b0c1 2505 0741
000000a0: a0f0 bb40 67de e140 4254 1642 9251 1441
000000b0: 8254 fc41 bb3c 57c0 663b a1c0 cf92 5cc0
000000c0: a8b1 3b41 864a 14c1 518e 8541 3685 36c1
000000d0: c01e d141 6ef6 8ac1 bfdc b6c1 4040 3a42
000000e0: eb4b d941 1a97 97c1 de79 bc41 5933 cbc1
000000f0: 9316 a141 5b3a 7ac1 d911 eb41 e7f2 74c1
00000100: b605 1041 d576 c241 6279 a141 87b4 5ac0
00000110: 6294 1bc2 35cf 4ec1 6c60 41c2 f496 8c41
00000120: 6740 1fc2 5228 cd40 109c b642 c074 20c1
00000130: 7138 42c2 ac47 b1c0 dbc8 71c2 6059 c4c1
00000140: 237c 39c0 c0d2 77c1 8f54 60bf 3062 81c1
00000150: ef7c fb41 8755 53c2 ed87 8142 dcbc 12c1
00000160: f86b 5dc1 ae0e 9241 8bc9 4942 2c38 8941
00000170: 3c4d fa3f 3c90 1a3e 0e9c 3e40 a676 8dc2
00000180: e124 6b42 1103 e540 94f8 a740 d8f7 abc1
00000190: 06ea aa41 9a4c 7441 24a2 0c42 884f 9ec1
000001a0: f5f8 10c2 7cf2 0142 65d6 32c0 a63f 0dc1
000001b0: 85b9 91c2 d6eb 87c0 749c dcc1 8c52 58c2
000001c0: c0a3 af41 0117 8cc1 0b04 ebc1 3a39 51c1
000001d0: 8617 9fc1 f21d 09c0 3213 11c1 33d6 bf41
000001e0: 450c 6441 636b e4c1 3700 3e41 09a7 3141
000001f0: e9bd 95c1 298c e1c1 b348 8abf 5a38 0f42
00000200: 5cce 5041 e782 3241 dd5d 0ac1 0d0f 36c1
00000210: bc88 fa3f 2c63 0042 6ee0 05c1 cc22 cbc1
00000220: a876 8fc1 15a0 1d41 bb73 4041 f630 31c1
00000230: 796b 2b42 2d03 b5c1 f5b3 4a42 43b3 f040
00000240: 77a3 db41 9460 5fc1 d99d d940 4cc8 7d41
00000250: f04a 0840 22c4 0d42 2f67 2341 b77b 1441
00000260: 1212 d941 4d97 81c0 5899 d1c1 8cc0 0ac1
00000270: 04c3 81c1 d806 a441 c5a7 6f40 4176 45be
00000280: 79ab 48c2 181e 47c2 b35f f3c0 3f72 8341
00000290: 9c53 e8c1 a216 2e41 a04a 9b42 7c07 0241
000002a0: d1e4 02c2 439c 82c2 7e7b f7c0 0410 a9c1
000002b0: 736d b741 a7aa c9c0 8efd 3dc1 77dc 3c42
000002c0: 5142 f840 88f6 28c1 4ade 95c1 4c2f 10c2
000002d0: a57f 2a41 1c89 2c41 75dd 10c2 a872 0f42
000002e0: b4c8 92c1 a58e e0c1 b22d 3d40 363b a9c1
000002f0: ea95 f340 46be ccc1 ff8b 4942 7e34 e340
00000300: 74ca 9140 9995 34c2 21b9 9741 a90a af41
00000310: 9aeb 2d42 503c d6c1 1b6a eec1 4b4b 67c2
00000320: 81a5 a341 287c 4540 59dc 47c2 5b41 9bc2
00000330: a021 b241 def9 b0c1 cf2e f9c0 f43c 2542
00000340: d585 2ec1 ffa4 d6c1 16db e841 798a 4ac1
00000350: 62f9 b1c1 a1dd 97c1 d56a 5cc1 c14a 21c2
00000360: 09ae 00c2 3aa3 69c2 5136 8341 226f 1142
00000370: 23f3 353e 415b b740 0c9d 22bf 0497 9442
00000380: b248 1542 57ec 4e40 90dd 8f41 135d 70c1
00000390: b330 00c1 05ab 63c1 6c2d e641 54bb 3bc2
000003a0: dc97 1dc2 f15e 25c2 7c92 22c1 76e9 f9c1
000003b0: 3c9d 8441 7a3e b841 4ac8 2840 687e 1ac0
000003c0: d242 5142 e1e0 e0c1 95d3 f341 8cf9 a7c1
000003d0: 1f54 4bc2 6354 92be b725 ccc1 e372 7cc0
000003e0: 9177 5042 575b a440 b034 53c0 ff50 dd41
000003f0: 5930 e1c1 3575 e940 8cc6 11c1 ea47 1b42

fuser.layers.0.input_layer.1.running_var f4 [256]
43.24124 76.95566 26.420824 29.929073 62.284416 28.48184 19.080275 39.16042
85.50099 56.847717 52.6875 105.318054 100.94097 58.246845 61.501038 36.84553
101.26337 33.72334 37.78042 47.6202 70.29302 32.9628 43.40831 27.478502
44.018913 42.093838 43.386703 33.693798 43.06263 45.15859 39.423008 34.609547
46.337624 37.3175 27.96429 84.16495 33.957752 27.728743 48.27915 74.06878
67.80433 74.30438 29.591736 30.44477 61.70754 58.24341 40.207607 62.274033
32.73764 45.997517 53.01274 35.5003 40.69748 71.50588 46.391068 50.903965
66.72224 60.97706 134.79424 35.232327 32.81378 71.99091 58.48822 58.833946
82.70044 40.1227 29.573141 50.87917 48.07932 40.167362 43.484665 27.954758
125.795685 37.58027 22.970173 41.577362 53.059425 33.987774 56.542305 26.779016
103.83279 30.995104 30.80704 49.229504 57.283737 37.37328 24.7165 29.853138
46.631508 63.461662 30.844652 36.012287 56.78927 26.199467 50.511486 35.146904
51.52022 24.05694 45.186024 25.537151 51.11247 36.582256 55.758343 53.217896
23.25792 42.747597 37.673595 97.30528 31.81111 61.229973 27.031105 45.114647
23.205538 80.96009 54.740105 76.74029 75.49541 21.096115 85.980545 34.50633
64.98363 77.01987 67.2435 29.864862 26.117971 58.17794 31.008238 61.29827
41.755043 55.63828 41.4155 61.81201 42.206646 56.894596 124.39749 36.795822
23.039745 37.633926 40.830925 66.73212 29.03604 51.76506 52.023624 35.61455
25.40308 46.575893 76.161156 29.927217 92.79053 133.07231 27.97172 62.360203
28.257063 34.759617 45.20386 46.924316 32.879097 117.237366 44.44604 35.873585
31.3266 67.35135 73.60024 21.627022 38.44565 25.645264 39.112938 30.588863
41.375107 32.08063 61.358524 27.580887 192.28316 32.603214 22.804256 27.511839
60.088104 85.45769 172.05869 21.591671 25.992014 62.559875 32.05512 57.940117
40.6457 49.24097 51.810875 85.40235 33.229305 28.678593 61.177994 61.09425
84.41288 33.474125 62.82835 177.76419 44.52211 45.99936 44.542427 49.581894
24.696732 36.39478 57.82374 33.51561 54.85097 32.00231 39.591915 23.12565
31.7732 57.536564 39.303673 61.470173 34.776337 35.218384 64.56394 55.435585
37.74522 22.248167 53.586075 57.99947 39.88369 71.61713 46.14552 24.455214
32.510017 88.88385 125.14203 28.214725 46.145287 47.63499 64.55313 26.6213
41.87323 33.81246 29.617588 24.703651 23.89187 30.181484 95.044624 55.535686
74.83041 45.03764 71.71396 53.476635 31.03829 35.12552 29.758093 28.338127
21.804728 39.244892 60.13225 70.28104 37.491375 50.464233 68.397446 45.28668
00000000: 08f7 2c42 4ce9 9942 d95d d341 be6e ef41
00000010: 3e23 7942 cfda e341 67a4 9841 45a4 1c42
00000020: 8200 ab42 1064 6342 00c0 5242 d8a2 d242
00000030: c7e1 c942 c5fc 6842 1001 7642 d361 1342
00000040: d886 ca42 b3e4 0642 261f 1742 167b 3e42
00000050: 0796 8c42 e8d9 0342 1ca2 2d42 f9d3 db41
00000060: 5e13 3042 1760 2842 fc8b 2d42 73c6 0642
00000070: 2240 2c42 65a2 3442 29b1 1d42 2d70 0a42
00000080: ba59 3942 1f45 1542 deb6 df41 7454 a842
00000090: bdd4 0742 77d4 dd41 d91d 4142 3723 9442
000000a0: d19b 8742 d89b 9442 e0bb ec41 e48e f341
000000b0: 85d4 7642 40f9 6842 97d4 2042 9c18 7942
000000c0: 58f3 0242 75fd 3742 0c0d 5442 4f00 0e42
000000d0: 38ca 2242 0303 8f42 7490 3942 a99d 4b42
000000e0: c971 8542 82e8 7342 53cb 0643 e7ed 0c42
000000f0: 5041 0342 59fb 8f42 f0f3 6942 f655 6b42
00000100: a066 a542 a57d 2042 cb95 ec41 4584 4b42
00000110: 3951 4042 61ab 2042 4cf0 2d42 58a3 df41
00000120: 6497 fb42 3252 1642 eac2 b741 384f 2642
00000130: da3c 5442 7bf3 0742 522b 6242 6d3b d641
00000140: 63aa cf42 f9f5 f741 d174 f641 03eb 4442
00000150: 8c22 6542 3d7e 1542 64bb c541 3ad3 ee41
00000160: aa86 3a42 bed8 7d42 d9c1 f641 950c 1042
00000170: 3628 6342 8298 d141 c30b 4a42 6e96 0c42
00000180: b514 4e42 9d74 c041 7dbe 3442 164c cc41
00000190: 2b73 4c42 3b54 1242 8b08 5f42 20df 5442
000001a0: 3810 ba41 8afd 2a42 c3b1 1642 4e9c c242
000001b0: 277d fe41 7eeb 7442 b43f d841 6675 3442
000001c0: f1a4 b941 91eb a142 def5 5a42 077b 9942
000001d0: a6fd 9642 d8c4 a841 0af6 ab42 7b06 0a42
000001e0: 9ef7 8142 2c0a 9a42 ac7c 8642 3deb ee41
000001f0: 9bf1 d041 36b6 6842 df10 f841 6e31 7542
00000200: 2a05 2742 998d 5e42 79a9 2542 803f 7742
00000210: 9bd3 2842 1194 6342 84cb f842 ec2e 1342
00000220: 6651 b841 2489 1642 de52 2342 d876 8542
00000230: cf49 e841 6c0f 4f42 3118 5042 4d75 0e42
00000240: 8239 cb41 b74d 3a42 8352 9842 f16a ef41
00000250: c094 b942 8312 0543 15c6 df41 d970 7942
00000260: 770e e241 d909 0b42 c1d0 3442 80b2 3b42
00000270: 3284 0342 8879 ea42 bfc8 3142 8d7e 0f42
00000280: e09c fa41 e4b3 8642 5333 9342 2404 ad41
00000290: 58c8 1942 8029 cd41 a673 1c42 feb5 f441
000002a0: 1c80 2542 9152 0042 216f 7542 a8a5 dc41
000002b0: 7d48 4043 b169 0242 1e6f b641 3f18 dc41
000002c0: 385a 7042 56ea aa42 060f 2c43 bebb ac41
000002d0: a5ef cf41 503d 7a42 7138 0042 aec2 6742
000002e0: 3295 2242 c1f6 4442 563e 4f42 01ce aa42
000002f0: cfea 0442 c26d e541 44b6 7442 8360 7442
00000300: 65d3 a842 81e5 0542 3b50 7b42 a2c3 3143
00000310: a416 3242 58ff 3742 722b 3242 dc53 4642
00000320: e892 c541 4194 1142 824b 6742 fc0f 0642
00000330: 6567 5b42 5e02 0042 1f5e 1e42 5501 b941
00000340: 832f fe41 7125 6642 f636 1d42 75e1 7542
00000350: f81a 0b42 a0df 0c42 bd20 8142 0abe 5d42
00000360: 1bfb 1642 3ffc b141 2458 5642 75ff 6742
00000370: e688 1f42 f83b 8f42 0395 3842 47a4 c341
00000380: 420a 0242 88c4 b142 b848 fa42 c2b7 e141
00000390: c694 3842 3b8a 3e42 341b 8142 6cf8 d441
000003a0: 307e 2742 f63f 0742 d2f0 ec41 14a1 c541
000003b0: 8d22 bf41 ae73 f141 d916 be42 8b24 5e42
000003c0: 2ba9 9542 8b26 3442 8c6d 8f42 13e8 5542
000003d0: 6b4e f841 8880 0c42 9310 ee41 7cb4 e241
000003e0: 1570 ae41 c5fa 1c42 6d87 7042 e48f 8c42
000003f0: 2bf7 1542 60db 4942 7ecb 8842 8f25 3542

fuser.layers.0.output_layer.0.weight f4 [64, 256]
0.009672352 -0.56473386 0.27069798 0.26084217 0.032044426 0.32425225 0.84835786 -0.15813825
-0.7076242 0.0967947 0.15898056 -0.12034487 -0.36403447 -0.0042526615 -0.38902387 0.3405861
-0.66620576 -0.919559 0.29356718 0.37048504 -0.28482184 -0.046586912 -1.6153044 0.10607531
1.2407202 0.1372232 -0.9454456 -0.39746624 -0.6785082 0.14310601 0.28551146 -0.5816708
0.0935795 -0.6759255 0.09442582 -1.2680721 0.066977315 0.26908994 -0.2607065 0.12791125
0.10249865 -0.2561283 0.55714154 -0.31657404 -0.18291374 -0.9181937 -1.1457981 0.10386167
-0.7918732 -0.039788667 0.2962919 0.19941196 -1.125286 -0.6147611 0.3384979 0.11666024
0.2760308 0.2966933 -0.5218263 -0.37808624 0.6278742 -0.49003854 -0.52682334 -0.31523046
0.4616291 0.8731674 -0.103560716 0.41757897 -0.1586341 -0.3926221 0.25346038 0.5105307
-1.1292104 -0.4516602 -0.25966418 -0.35335624 0.32185858 0.44956428 -1.4246192 0.73939097
0.04113858 -0.3453655 0.3369334 0.21862873 0.18486217 1.3583419 -0.20235002 -0.7405335
0.46120325 -0.18569349 -0.24247879 -0.47933576 0.035810627 -0.89681494 -0.35760382 0.12986235
0.24078687 0.09428928 0.018129917 0.4171409 -0.43145376 -0.62826914 0.87446463 0.42845017
0.017724533 0.34994358 0.44021258 -1.1461767 -0.3954532 -0.7565583 -0.022087753 0.40908584
0.21089493 -1.4048766 -0.49783754 -1.6536509 -1.0366929 -0.87448096 0.033273146 1.7962725
-0.96436334 0.18659869 -0.23313968 0.0015892567 -0.136739 0.03549189 -0.31632015 0.46944562
-0.05129895 -0.106392965 0.3221631 -0.9730778 -0.40451795 -1.0068989 0.08145417 0.047043722
0.5531271 0.24755904 0.19337672 0.4999849 -0.85040045 -0.08413603 0.10623822 0.5783035
-0.5278106 0.5882024 0.21584058 0.3754339 -0.35635352 -0.1623773 -0.013277284 0.7165909
0.075540535 -0.25342992 0.6027823 -0.05557703 -0.35010597 -1.4753443 -0.31061605 -0.4170274
-0.040348653 -0.17822966 -0.78610504 -0.33752668 0.29639432 0.7207635 -0.47064885 0.2882569
0.40036577 0.31601024 -0.58538395 0.35572582 0.35963222 0.34628028 -2.3234715 0.042939954
0.26902232 0.108949356 -0.12360041 -0.10685521 -0.43589365 -0.36867335 -0.17874241 0.032906085
0.45145008 -0.15204272 -0.7843108 -0.058507282 -0.2073431 0.43531725 0.8697379 -0.50555605
0.29384872 -0.009994898 -0.4810918 -0.33756584 -0.2476869 -0.181617 -0.33438063 -1.6765237
0.48624727 -0.44424108 -0.86888635 0.29952887 0.31269133 -0.3407031 0.46340865 -1.4188251
0.24803114 0.14401966 -0.68389016 -0.2649848 -0.13305067 -0.6496141 -0.6196772 -1.0883536
-0.22928704 -0.10846158 -0.6448326 -1.2227937 0.521041 -0.28666937 0.35276335 0.35259697
-0.683096 0.3541708 -0.1828629 -0.23746783 0.117197156 -0.07369698 0.10140836 0.05434745
-0.31052047 0.6693576 0.6150493 0.34668118 0.4591982 0.11699539 0.06599353 -0.7704271
-0.18787813 0.59865683 0.3001941 0.027437042 -0.1397123 -0.3045662 0.17760971 0.24823846
0.6297436 -0.6387565 0.46084157 0.28003082 -0.21718101 0.639767 -0.0056986506 -0.09012346
00000000: c978 1e3c 6692 10bf ed98 8a3e 1b8d 853e
00000010: 0441 033d 6404 a63e fb2d 593f feee 21be
00000020: dc26 35bf 4d3c c63d cdcb 223e 5f77 f6bd
00000030: ba62 babe e959 8bbb 232e c7be 4d61 ae3e
00000040: 768c 2abf 3868 6bbf 704e 963e 37b0 bd3e
00000050: 2bd4 91be ebd1 3ebd 4bc2 cebf 033e d93d
00000060: ebcf 9e3f 3d84 0c3e b908 72bf b280 cbbe
00000070: b7b2 2dbf 628a 123e 8f2e 923e 61e8 14bf
00000080: 9ca6 bf3d 7409 2dbf 5362 c13d 3050 a2bf
00000090: 672b 893d 28c6 893e 537b 85be 2bfb 023e
000000a0: d0ea d13d 4023 83be d4a0 0e3f fe15 a2be
000000b0: bd4d 3bbe be0e 6bbf 83a9 92bf 6db5 d43d
000000c0: 34b8 4abf 71f9 22bd 92b3 973e a632 4c3e
000000d0: 5f09 90bf fc60 1dbf 994f ad3e 90eb ee3d
000000e0: e953 8d3e 2fe8 973e 6996 05bf 8594 c1be
000000f0: 5dbc 203f 55e6 fabe e5dd 06bf e365 a1be
00000100: a65a ec3e e687 5f3f a417 d4bd e9cc d53e
00000110: fa70 22be c405 c9be 8fc5 813e 24b2 023f
00000120: f789 90bf 0140 e7be b4f2 84be 1ceb b4be
00000130: a6ca a43e 4a2d e63e ec59 b6bf ba48 3d3f
00000140: ed80 283d bfd3 b0be 8982 ac3e 36e0 5f3e
00000150: 824c 3d3e 26de ad3f d834 4fbe 9a93 3dbf
00000160: d522 ec3e 6f26 3ebe 5c4c 78be 7f6b f5be
00000170: 2aae 123d aa95 65bf d917 b7be a3fa 043e
00000180: d590 763e bd1a c13d 3185 943c 7e93 d53e
00000190: 82e7 dcbe 3fd6 20bf eadc 5f3f d25d db3e
000001a0: 0a33 913c ce2b b33e 8b63 e13e ebb5 92bf
000001b0: d878 cabe cead 41bf 60f1 b4bc b373 d13e
000001c0: d7f4 573e ffd2 b3bf 90e4 febe d5aa d3bf
000001d0: 5ab2 84bf fcdd 5fbf 6c49 083d 42ec e53f
000001e0: 84e0 76bf ba13 3f3e 2bbc 6ebe 9b4e d03a
000001f0: 4f05 0cbe f25f 113d b7f4 a1be 2d5b f03e
00000200: d91e 52bd 8ee4 d9bd 90f2 a43e a01b 79bf
00000210: fa1c cfbe 10e2 80bf 72d1 a63d ebb0 403d
00000220: bd99 0d3f 1e80 7d3e 8c04 463e 05fe ff3e
00000230: d8b3 59bf 834f acbd 6d93 d93d b30b 143f
00000240: 981e 07bf 6f94 163f 5005 5d3e df38 c03e
00000250: f873 b6be 3c46 26be f788 59bc 8072 373f
00000260: ffb4 9a3d 91c1 81be f14f 1a3f bda4 63bd
00000270: 1741 b3be 15d8 bcbf 1109 9fbe 9e84 d5be
00000280: a144 25bd d681 36be 2e3e 49bf 4cd0 acbe
00000290: ffc0 973e f583 383f e3f8 f0be 6996 933e
000002a0: befc cc3e 18cc a13e b9db 15bf b221 b63e
000002b0: b721 b83e a64b b13e c2b3 14c0 cee1 2f3d
000002c0: 4bbd 893e d720 df3d 3622 fdbd e8d6 dabd
000002d0: 742d dfbe c1c2 bcbe 4008 37be 88c8 063d
000002e0: 7724 e73e 16b1 1bbe 98c8 48bf 55a5 6fbd
000002f0: c051 54be e7e1 de3e 25a7 5e3f 1f6c 01bf
00000300: 5773 963e a4c1 23bc aa51 f6be 6ed5 acbe
00000310: a2a1 7dbe cff9 39be f033 abbe 5498 d6bf
00000320: 67f5 f83e 9173 e3be 566f 5ebf d95b 993e
00000330: 1419 a03e a370 aebe e643 ed3e 109c b5bf
00000340: e0fb 7d3e e479 133e 6d13 2fbf 16ac 87be
00000350: 6f3e 08be 1c4d 26bf 2aa3 1ebf 2c4f 8bbf
00000360: 39ca 6abe 1b21 debd c013 25bf 8184 9cbf
00000370: f162 053f 54c6 92be 669d b43e 9787 b43e
00000380: 61df 2ebf e055 b53e 6940 3bbe c42a 73be
00000390: 1005 f03d 71ee 96bd 30af cf3d 6f9b 5e3d
000003a0: 8afc 9ebe 055b 2b3f df73 1d3f 3280 b13e
000003b0: 071c eb3e 479b ef3d 9e27 873d b63a 45bf
000003c0: 2063 40be 9341 193f 0bb3 993e a6c3 e03c
000003d0: be10 0fbe 1af0 9bbe 52df 353e 3932 7e3e
000003e0: e036 213f 8c85 23bf 6df3 eb3e 3360 8f3e
000003f0: b364 5ebe c5c7 233f bfbb babb a692 b8bd
